…
# Compile the model with binary cross-entropy loss, Adam optimizer, and accuracy metric
adam = optimizers.Adam(learning_rate=0.0001)
model3.compile(loss='binary_crossentropy', optimizer=adam, metrics=['accuracy'])

# Build the model before calling summary to initialize the weights and biases
model3.build(input_shape=(64, 64, 4))

# Display a summary of the model architecture
model3.summary()
Model: "sequential_18"
_________________________________________________________________
 Layer (type)                Output Shape              Param #   
=================================================================
 conv2d_188 (Conv2D)         (None, 64, 64, 64)        1088      
                                                                 
 max_pooling2d_188 (MaxPool  (None, 32, 32, 64)        0         
 ing2D)                                                          
                                                                 
 dropout_140 (Dropout)       (None, 32, 32, 64)        0         
                                                                 
 conv2d_189 (Conv2D)         (None, 32, 32, 64)        16448     
                                                                 
 max_pooling2d_189 (MaxPool  (None, 16, 16, 64)        0         
 ing2D)                                                          
                                                                 
 dropout_141 (Dropout)       (None, 16, 16, 64)        0         
                                                                 
 conv2d_190 (Conv2D)         (None, 16, 16, 64)        16448     
                                                                 
 max_pooling2d_190 (MaxPool  (None, 8, 8, 64)          0         
 ing2D)                                                          
                                                                 
 dropout_142 (Dropout)       (None, 8, 8, 64)          0         
                                                                 
 conv2d_191 (Conv2D)         (None, 8, 8, 64)          102464    
                                                                 
 max_pooling2d_191 (MaxPool  (None, 4, 4, 64)          0         
 ing2D)                                                          
                                                                 
 dropout_143 (Dropout)       (None, 4, 4, 64)          0         
                                                                 
 conv2d_192 (Conv2D)         (None, 4, 4, 64)          102464    
                                                                 
 max_pooling2d_192 (MaxPool  (None, 2, 2, 64)          0         
 ing2D)                                                          
                                                                 
 dropout_144 (Dropout)       (None, 2, 2, 64)          0         
                                                                 
 conv2d_193 (Conv2D)         (None, 2, 2, 64)          102464    
                                                                 
 max_pooling2d_193 (MaxPool  (None, 1, 1, 64)          0         
 ing2D)                                                          
                                                                 
 dropout_145 (Dropout)       (None, 1, 1, 64)          0         
                                                                 
 conv2d_194 (Conv2D)         (None, 1, 1, 128)         663680    
                                                                 
 max_pooling2d_194 (MaxPool  (None, 1, 1, 128)         0         
 ing2D)                                                          
                                                                 
 dropout_146 (Dropout)       (None, 1, 1, 128)         0         
                                                                 
 conv2d_195 (Conv2D)         (None, 1, 1, 128)         1327232   
                                                                 
 max_pooling2d_195 (MaxPool  (None, 1, 1, 128)         0         
 ing2D)                                                          
                                                                 
 dropout_147 (Dropout)       (None, 1, 1, 128)         0         
                                                                 
 flatten_15 (Flatten)        (None, 128)               0         
                                                                 
 dense_20 (Dense)            (None, 2)                 258       
                                                                 
=================================================================
Total params: 2332546 (8.90 MB)
Trainable params: 2332546 (8.90 MB)
Non-trainable params: 0 (0.00 Byte)
_________________________________________________________________
In [131]:
from tensorflow.keras.callbacks import EarlyStopping, ModelCheckpoint

callbacks = [EarlyStopping(monitor = 'val_loss', patience = 10), # Given the augments will try to be more intense with the training
…
